…
TEST:
  AUG:
    ENABLED: False
    FLIP: True
    MAX_SIZE: 4000
    MIN_SIZES: (400, 500, 600, 700, 800, 900, 1000, 1100, 1200)
  DETECTIONS_PER_IMAGE: 100
  EVAL_PERIOD: 1000
  EXPECTED_RESULTS: []
  KEYPOINT_OKS_SIGMAS: []
  PRECISE_BN:
    ENABLED: True
    NUM_ITER: 200
VERSION: 2
VIS_PERIOD: 0
[06/06 08:40:09 detectron2 INFO:122]: Full config saved to output/kitti-faster-rcnn-resnest-3nasfpn-50/config.yaml
[06/06 08:40:09 d2.utils.env INFO:29]: Using a generated random seed 9253797
[06/06 08:40:13 d2.engine.defaults INFO:399]: Model:
GeneralizedRCNN(
  (backbone): NASFPN(
    (fpn_lateral2): Conv2d(
      256, 256, kernel_size=(1, 1), stride=(1, 1), bias=False
      (norm): NaiveSyncBatchNorm(256, eps=1e-05, momentum=0.1, affine=True, track_running_stats=True)
    )
    (fpn_lateral3): Conv2d(
      512, 256, kernel_size=(1, 1), stride=(1, 1), bias=False
      (norm): NaiveSyncBatchNorm(256, eps=1e-05, momentum=0.1, affine=True, track_running_stats=True)
    )
    (fpn_lateral4): Conv2d(
      1024, 256, kernel_size=(1, 1), stride=(1, 1), bias=False
      (norm): NaiveSyncBatchNorm(256, eps=1e-05, momentum=0.1, affine=True, track_running_stats=True)
    )
    (fpn_lateral5): Conv2d(
      2048, 256, kernel_size=(1, 1), stride=(1, 1), bias=False
      (norm): NaiveSyncBatchNorm(256, eps=1e-05, momentum=0.1, affine=True, track_running_stats=True)
    )
    (lateral_conv_p6): Conv2d(
      2048, 256, kernel_size=(1, 1), stride=(1, 1), bias=False
      (norm): NaiveSyncBatchNorm(256, eps=1e-05, momentum=0.1, affine=True, track_running_stats=True)
    )
    (top_block): LastLevelMaxPool()
    (bottom_up): ResNet(
      (stem): BasicStem(
        (conv1_1): Conv2d(
          3, 32, kernel_size=(3, 3), stride=(2, 2), padding=(1, 1), bias=False
          (norm): FrozenBatchNorm2d(num_features=32, eps=1e-05)
        )
        (conv1_2): Conv2d(
          32, 32, kernel_size=(3, 3), stride=(1, 1), padding=(1, 1), bias=False
          (norm): FrozenBatchNorm2d(num_features=32, eps=1e-05)
        )
        (conv1_3): Conv2d(
          32, 64, kernel_size=(3, 3), stride=(1, 1), padding=(1, 1), bias=False
          (norm): FrozenBatchNorm2d(num_features=64, eps=1e-05)
        )
      )
      (res2): Sequential(
        (0): BottleneckBlock(
          (shortcut_avgpool): AvgPool2d(kernel_size=1, stride=1, padding=0)
          (shortcut): Conv2d(
            64, 256, kernel_size=(1, 1), stride=(1, 1), bias=False
            (norm): FrozenBatchNorm2d(num_features=256, eps=1e-05)
          )
          (conv1): Conv2d(
            64, 64, kernel_size=(1, 1), stride=(1, 1), bias=False
            (norm): FrozenBatchNorm2d(num_features=64, eps=1e-05)
          )
          (conv2): SplAtConv2d(
            (conv): Conv2d(64, 128, kernel_size=(3, 3), stride=(1, 1), padding=(1, 1), groups=2, bias=False)
            (bn0): FrozenBatchNorm2d(num_features=128, eps=1e-05)
            (relu): ReLU(inplace=True)
            (fc1): Conv2d(64, 32, kernel_size=(1, 1), stride=(1, 1))
            (bn1): FrozenBatchNorm2d(num_features=32, eps=1e-05)
            (fc2): Conv2d(32, 128, kernel_size=(1, 1), stride=(1, 1))
            (rsoftmax): rSoftMax()
          )
          (conv3): Conv2d(
            64, 256, kernel_size=(1, 1), stride=(1, 1), bias=False
            (norm): FrozenBatchNorm2d(num_features=256, eps=1e-05)
          )
        )
        (1): BottleneckBlock(
          (conv1): Conv2d(
            256, 64, kernel_size=(1, 1), stride=(1, 1), bias=False
            (norm): FrozenBatchNorm2d(num_features=64, eps=1e-05)
          )
          (conv2): SplAtConv2d(
            (conv): Conv2d(64, 128, kernel_size=(3, 3), stride=(1, 1), padding=(1, 1), groups=2, bias=False)
            (bn0): FrozenBatchNorm2d(num_features=128, eps=1e-05)
            (relu): ReLU(inplace=True)
            (fc1): Conv2d(64, 32, kernel_size=(1, 1), stride=(1, 1))
            (bn1): FrozenBatchNorm2d(num_features=32, eps=1e-05)
            (fc2): Conv2d(32, 128, kernel_size=(1, 1), stride=(1, 1))
            (rsoftmax): rSoftMax()
          )
          (conv3): Conv2d(
            64, 256, kernel_size=(1, 1), stride=(1, 1), bias=False
            (norm): FrozenBatchNorm2d(num_features=256, eps=1e-05)
          )
        )
        (2): BottleneckBlock(
          (conv1): Conv2d(
            256, 64, kernel_size=(1, 1), stride=(1, 1), bias=False
            (norm): FrozenBatchNorm2d(num_features=64, eps=1e-05)
          )
          (conv2): SplAtConv2d(
            (conv): Conv2d(64, 128, kernel_size=(3, 3), stride=(1, 1), padding=(1, 1), groups=2, bias=False)
            (bn0): FrozenBatchNorm2d(num_features=128, eps=1e-05)
            (relu): ReLU(inplace=True)
            (fc1): Conv2d(64, 32, kernel_size=(1, 1), stride=(1, 1))
            (bn1): FrozenBatchNorm2d(num_features=32, eps=1e-05)
            (fc2): Conv2d(32, 128, kernel_size=(1, 1), stride=(1, 1))
            (rsoftmax): rSoftMax()
          )
          (conv3): Conv2d(
            64, 256, kernel_size=(1, 1), stride=(1, 1), bias=False
            (norm): FrozenBatchNorm2d(num_features=256, eps=1e-05)
          )
        )
      )
      (res3): Sequential(
        (0): BottleneckBlock(
          (shortcut_avgpool): AvgPool2d(kernel_size=2, stride=2, padding=0)
          (shortcut): Conv2d(
            256, 512, kernel_size=(1, 1), stride=(1, 1), bias=False
            (norm): NaiveSyncBatchNorm(512, eps=1e-05, momentum=0.1, affine=True, track_running_stats=True)
          )
          (conv1): Conv2d(
            256, 128, kernel_size=(1, 1), stride=(1, 1), bias=False
            (norm): NaiveSyncBatchNorm(128, eps=1e-05, momentum=0.1, affine=True, track_running_stats=True)
          )
          (conv2): SplAtConv2d(
            (conv): Conv2d(128, 256, kernel_size=(3, 3), stride=(1, 1), padding=(1, 1), groups=2, bias=False)
            (bn0): NaiveSyncBatchNorm(256, eps=1e-05, momentum=0.1, affine=True, track_running_stats=True)
            (relu): ReLU(inplace=True)
            (fc1): Conv2d(128, 64, kernel_size=(1, 1), stride=(1, 1))
            (bn1): NaiveSyncBatchNorm(64, eps=1e-05, momentum=0.1, affine=True, track_running_stats=True)
            (fc2): Conv2d(64, 256, kernel_size=(1, 1), stride=(1, 1))
            (rsoftmax): rSoftMax()
          )
          (avd_layer): AvgPool2d(kernel_size=3, stride=2, padding=1)
          (conv3): Conv2d(
            128, 512, kernel_size=(1, 1), stride=(1, 1), bias=False
            (norm): NaiveSyncBatchNorm(512, eps=1e-05, momentum=0.1, affine=True, track_running_stats=True)
          )
        )
        (1): BottleneckBlock(
          (conv1): Conv2d(
            512, 128, kernel_size=(1, 1), stride=(1, 1), bias=False
            (norm): NaiveSyncBatchNorm(128, eps=1e-05, momentum=0.1, affine=True, track_running_stats=True)
          )
          (conv2): SplAtConv2d(
            (conv): Conv2d(128, 256, kernel_size=(3, 3), stride=(1, 1), padding=(1, 1), groups=2, bias=False)
            (bn0): NaiveSyncBatchNorm(256, eps=1e-05, momentum=0.1, affine=True, track_running_stats=True)
            (relu): ReLU(inplace=True)
            (fc1): Conv2d(128, 64, kernel_size=(1, 1), stride=(1, 1))
            (bn1): NaiveSyncBatchNorm(64, eps=1e-05, momentum=0.1, affine=True, track_running_stats=True)
            (fc2): Conv2d(64, 256, kernel_size=(1, 1), stride=(1, 1))
            (rsoftmax): rSoftMax()
          )
          (conv3): Conv2d(
            128, 512, kernel_size=(1, 1), stride=(1, 1), bias=False
            (norm): NaiveSyncBatchNorm(512, eps=1e-05, momentum=0.1, affine=True, track_running_stats=True)
          )
        )
        (2): BottleneckBlock(
          (conv1): Conv2d(
            512, 128, kernel_size=(1, 1), stride=(1, 1), bias=False
            (norm): NaiveSyncBatchNorm(128, eps=1e-05, momentum=0.1, affine=True, track_running_stats=True)
          )
          (conv2): SplAtConv2d(
            (conv): Conv2d(128, 256, kernel_size=(3, 3), stride=(1, 1), padding=(1, 1), groups=2, bias=False)
            (bn0): NaiveSyncBatchNorm(256, eps=1e-05, momentum=0.1, affine=True, track_running_stats=True)
            (relu): ReLU(inplace=True)
            (fc1): Conv2d(128, 64, kernel_size=(1, 1), stride=(1, 1))
            (bn1): NaiveSyncBatchNorm(64, eps=1e-05, momentum=0.1, affine=True, track_running_stats=True)
            (fc2): Conv2d(64, 256, kernel_size=(1, 1), stride=(1, 1))
            (rsoftmax): rSoftMax()
          )
          (conv3): Conv2d(
            128, 512, kernel_size=(1, 1), stride=(1, 1), bias=False
            (norm): NaiveSyncBatchNorm(512, eps=1e-05, momentum=0.1, affine=True, track_running_stats=True)
          )
        )
        (3): BottleneckBlock(
          (conv1): Conv2d(
            512, 128, kernel_size=(1, 1), stride=(1, 1), bias=False
            (norm): NaiveSyncBatchNorm(128, eps=1e-05, momentum=0.1, affine=True, track_running_stats=True)
          )
          (conv2): SplAtConv2d(
            (conv): Conv2d(128, 256, kernel_size=(3, 3), stride=(1, 1), padding=(1, 1), groups=2, bias=False)
            (bn0): NaiveSyncBatchNorm(256, eps=1e-05, momentum=0.1, affine=True, track_running_stats=True)
            (relu): ReLU(inplace=True)
            (fc1): Conv2d(128, 64, kernel_size=(1, 1), stride=(1, 1))
            (bn1): NaiveSyncBatchNorm(64, eps=1e-05, momentum=0.1, affine=True, track_running_stats=True)
            (fc2): Conv2d(64, 256, kernel_size=(1, 1), stride=(1, 1))
            (rsoftmax): rSoftMax()
          )
          (conv3): Conv2d(
            128, 512, kernel_size=(1, 1), stride=(1, 1), bias=False
            (norm): NaiveSyncBatchNorm(512, eps=1e-05, momentum=0.1, affine=True, track_running_stats=True)
          )
        )
      )
      (res4): Sequential(
        (0): BottleneckBlock(
          (shortcut_avgpool): AvgPool2d(kernel_size=2, stride=2, padding=0)
          (shortcut): Conv2d(
            512, 1024, kernel_size=(1, 1), stride=(1, 1), bias=False
            (norm): NaiveSyncBatchNorm(1024, eps=1e-05, momentum=0.1, affine=True, track_running_stats=True)
          )
          (conv1): Conv2d(
            512, 256, kernel_size=(1, 1), stride=(1, 1), bias=False
            (norm): NaiveSyncBatchNorm(256, eps=1e-05, momentum=0.1, affine=True, track_running_stats=True)
          )
          (conv2): SplAtConv2d(
            (conv): Conv2d(256, 512, kernel_size=(3, 3), stride=(1, 1), padding=(1, 1), groups=2, bias=False)
            (bn0): NaiveSyncBatchNorm(512, eps=1e-05, momentum=0.1, affine=True, track_running_stats=True)
            (relu): ReLU(inplace=True)
            (fc1): Conv2d(256, 128, kernel_size=(1, 1), stride=(1, 1))
            (bn1): NaiveSyncBatchNorm(128, eps=1e-05, momentum=0.1, affine=True, track_running_stats=True)
            (fc2): Conv2d(128, 512, kernel_size=(1, 1), stride=(1, 1))
            (rsoftmax): rSoftMax()
          )
          (avd_layer): AvgPool2d(kernel_size=3, stride=2, padding=1)
          (conv3): Conv2d(
            256, 1024, kernel_size=(1, 1), stride=(1, 1), bias=False
            (norm): NaiveSyncBatchNorm(1024, eps=1e-05, momentum=0.1, affine=True, track_running_stats=True)
          )
        )
        (1): BottleneckBlock(
          (conv1): Conv2d(
            1024, 256, kernel_size=(1, 1), stride=(1, 1), bias=False
            (norm): NaiveSyncBatchNorm(256, eps=1e-05, momentum=0.1, affine=True, track_running_stats=True)
          )
          (conv2): SplAtConv2d(
            (conv): Conv2d(256, 512, kernel_size=(3, 3), stride=(1, 1), padding=(1, 1), groups=2, bias=False)
            (bn0): NaiveSyncBatchNorm(512, eps=1e-05, momentum=0.1, affine=True, track_running_stats=True)
            (relu): ReLU(inplace=True)
            (fc1): Conv2d(256, 128, kernel_size=(1, 1), stride=(1, 1))
            (bn1): NaiveSyncBatchNorm(128, eps=1e-05, momentum=0.1, affine=True, track_running_stats=True)
            (fc2): Conv2d(128, 512, kernel_size=(1, 1), stride=(1, 1))
            (rsoftmax): rSoftMax()
          )
          (conv3): Conv2d(
            256, 1024, kernel_size=(1, 1), stride=(1, 1), bias=False
            (norm): NaiveSyncBatchNorm(1024, eps=1e-05, momentum=0.1, affine=True, track_running_stats=True)
          )
        )
        (2): BottleneckBlock(
          (conv1): Conv2d(
            1024, 256, kernel_size=(1, 1), stride=(1, 1), bias=False
            (norm): NaiveSyncBatchNorm(256, eps=1e-05, momentum=0.1, affine=True, track_running_stats=True)
          )
          (conv2): SplAtConv2d(
            (conv): Conv2d(256, 512, kernel_size=(3, 3), stride=(1, 1), padding=(1, 1), groups=2, bias=False)
            (bn0): NaiveSyncBatchNorm(512, eps=1e-05, momentum=0.1, affine=True, track_running_stats=True)
            (relu): ReLU(inplace=True)
            (fc1): Conv2d(256, 128, kernel_size=(1, 1), stride=(1, 1))
            (bn1): NaiveSyncBatchNorm(128, eps=1e-05, momentum=0.1, affine=True, track_running_stats=True)
            (fc2): Conv2d(128, 512, kernel_size=(1, 1), stride=(1, 1))
            (rsoftmax): rSoftMax()
          )
          (conv3): Conv2d(
            256, 1024, kernel_size=(1, 1), stride=(1, 1), bias=False
            (norm): NaiveSyncBatchNorm(1024, eps=1e-05, momentum=0.1, affine=True, track_running_stats=True)
          )
        )
        (3): BottleneckBlock(
          (conv1): Conv2d(
            1024, 256, kernel_size=(1, 1), stride=(1, 1), bias=False
            (norm): NaiveSyncBatchNorm(256, eps=1e-05, momentum=0.1, affine=True, track_running_stats=True)
          )
          (conv2): SplAtConv2d(
            (conv): Conv2d(256, 512, kernel_size=(3, 3), stride=(1, 1), padding=(1, 1), groups=2, bias=False)
            (bn0): NaiveSyncBatchNorm(512, eps=1e-05, momentum=0.1, affine=True, track_running_stats=True)
            (relu): ReLU(inplace=True)
            (fc1): Conv2d(256, 128, kernel_size=(1, 1), stride=(1, 1))
            (bn1): NaiveSyncBatchNorm(128, eps=1e-05, momentum=0.1, affine=True, track_running_stats=True)
            (fc2): Conv2d(128, 512, kernel_size=(1, 1), stride=(1, 1))
            (rsoftmax): rSoftMax()
          )
          (conv3): Conv2d(
            256, 1024, kernel_size=(1, 1), stride=(1, 1), bias=False
            (norm): NaiveSyncBatchNorm(1024, eps=1e-05, momentum=0.1, affine=True, track_running_stats=True)
          )
        )
        (4): BottleneckBlock(
          (conv1): Conv2d(
            1024, 256, kernel_size=(1, 1), stride=(1, 1), bias=False
            (norm): NaiveSyncBatchNorm(256, eps=1e-05, momentum=0.1, affine=True, track_running_stats=True)
          )
          (conv2): SplAtConv2d(
            (conv): Conv2d(256, 512, kernel_size=(3, 3), stride=(1, 1), padding=(1, 1), groups=2, bias=False)
            (bn0): NaiveSyncBatchNorm(512, eps=1e-05, momentum=0.1, affine=True, track_running_stats=True)
            (relu): ReLU(inplace=True)
            (fc1): Conv2d(256, 128, kernel_size=(1, 1), stride=(1, 1))
            (bn1): NaiveSyncBatchNorm(128, eps=1e-05, momentum=0.1, affine=True, track_running_stats=True)
            (fc2): Conv2d(128, 512, kernel_size=(1, 1), stride=(1, 1))
            (rsoftmax): rSoftMax()
          )
          (conv3): Conv2d(
            256, 1024, kernel_size=(1, 1), stride=(1, 1), bias=False
            (norm): NaiveSyncBatchNorm(1024, eps=1e-05, momentum=0.1, affine=True, track_running_stats=True)
          )
        )
        (5): BottleneckBlock(
          (conv1): Conv2d(
            1024, 256, kernel_size=(1, 1), stride=(1, 1), bias=False
            (norm): NaiveSyncBatchNorm(256, eps=1e-05, momentum=0.1, affine=True, track_running_stats=True)
          )
          (conv2): SplAtConv2d(
            (conv): Conv2d(256, 512, kernel_size=(3, 3), stride=(1, 1), padding=(1, 1), groups=2, bias=False)
            (bn0): NaiveSyncBatchNorm(512, eps=1e-05, momentum=0.1, affine=True, track_running_stats=True)
            (relu): ReLU(inplace=True)
            (fc1): Conv2d(256, 128, kernel_size=(1, 1), stride=(1, 1))
            (bn1): NaiveSyncBatchNorm(128, eps=1e-05, momentum=0.1, affine=True, track_running_stats=True)
            (fc2): Conv2d(128, 512, kernel_size=(1, 1), stride=(1, 1))
            (rsoftmax): rSoftMax()
          )
          (conv3): Conv2d(
            256, 1024, kernel_size=(1, 1), stride=(1, 1), bias=False
            (norm): NaiveSyncBatchNorm(1024, eps=1e-05, momentum=0.1, affine=True, track_running_stats=True)
          )
        )
      )
      (res5): Sequential(
        (0): BottleneckBlock(
          (shortcut_avgpool): AvgPool2d(kernel_size=2, stride=2, padding=0)
          (shortcut): Conv2d(
            1024, 2048, kernel_size=(1, 1), stride=(1, 1), bias=False
            (norm): NaiveSyncBatchNorm(2048, eps=1e-05, momentum=0.1, affine=True, track_running_stats=True)
          )
          (conv1): Conv2d(
            1024, 512, kernel_size=(1, 1), stride=(1, 1), bias=False
            (norm): NaiveSyncBatchNorm(512, eps=1e-05, momentum=0.1, affine=True, track_running_stats=True)
          )
          (conv2): SplAtConv2d(
            (conv): Conv2d(512, 1024, kernel_size=(3, 3), stride=(1, 1), padding=(1, 1), groups=2, bias=False)
            (bn0): NaiveSyncBatchNorm(1024, eps=1e-05, momentum=0.1, affine=True, track_running_stats=True)
            (relu): ReLU(inplace=True)
            (fc1): Conv2d(512, 256, kernel_size=(1, 1), stride=(1, 1))
            (bn1): NaiveSyncBatchNorm(256, eps=1e-05, momentum=0.1, affine=True, track_running_stats=True)
            (fc2): Conv2d(256, 1024, kernel_size=(1, 1), stride=(1, 1))
            (rsoftmax): rSoftMax()
          )
          (avd_layer): AvgPool2d(kernel_size=3, stride=2, padding=1)
          (conv3): Conv2d(
            512, 2048, kernel_size=(1, 1), stride=(1, 1), bias=False
            (norm): NaiveSyncBatchNorm(2048, eps=1e-05, momentum=0.1, affine=True, track_running_stats=True)
          )
        )
        (1): BottleneckBlock(
          (conv1): Conv2d(
            2048, 512, kernel_size=(1, 1), stride=(1, 1), bias=False
            (norm): NaiveSyncBatchNorm(512, eps=1e-05, momentum=0.1, affine=True, track_running_stats=True)
          )
          (conv2): SplAtConv2d(
            (conv): Conv2d(512, 1024, kernel_size=(3, 3), stride=(1, 1), padding=(1, 1), groups=2, bias=False)
            (bn0): NaiveSyncBatchNorm(1024, eps=1e-05, momentum=0.1, affine=True, track_running_stats=True)
            (relu): ReLU(inplace=True)
            (fc1): Conv2d(512, 256, kernel_size=(1, 1), stride=(1, 1))
            (bn1): NaiveSyncBatchNorm(256, eps=1e-05, momentum=0.1, affine=True, track_running_stats=True)
            (fc2): Conv2d(256, 1024, kernel_size=(1, 1), stride=(1, 1))
            (rsoftmax): rSoftMax()
          )
          (conv3): Conv2d(
            512, 2048, kernel_size=(1, 1), stride=(1, 1), bias=False
            (norm): NaiveSyncBatchNorm(2048, eps=1e-05, momentum=0.1, affine=True, track_running_stats=True)
          )
        )
        (2): BottleneckBlock(
          (conv1): Conv2d(
            2048, 512, kernel_size=(1, 1), stride=(1, 1), bias=False
            (norm): NaiveSyncBatchNorm(512, eps=1e-05, momentum=0.1, affine=True, track_running_stats=True)
          )
          (conv2): SplAtConv2d(
            (conv): Conv2d(512, 1024, kernel_size=(3, 3), stride=(1, 1), padding=(1, 1), groups=2, bias=False)
            (bn0): NaiveSyncBatchNorm(1024, eps=1e-05, momentum=0.1, affine=True, track_running_stats=True)
            (relu): ReLU(inplace=True)
            (fc1): Conv2d(512, 256, kernel_size=(1, 1), stride=(1, 1))
            (bn1): NaiveSyncBatchNorm(256, eps=1e-05, momentum=0.1, affine=True, track_running_stats=True)
            (fc2): Conv2d(256, 1024, kernel_size=(1, 1), stride=(1, 1))
            (rsoftmax): rSoftMax()
          )
          (conv3): Conv2d(
            512, 2048, kernel_size=(1, 1), stride=(1, 1), bias=False
            (norm): NaiveSyncBatchNorm(2048, eps=1e-05, momentum=0.1, affine=True, track_running_stats=True)
          )
        )
      )
    )
    (nasfpn_RCB_0_GP_P5_P3): RCB(
      (C): Conv2d(
        256, 256, kernel_size=(3, 3), stride=(1, 1), padding=(1, 1), bias=False
        (norm): NaiveSyncBatchNorm(256, eps=1e-05, momentum=0.1, affine=True, track_running_stats=True)
      )
    )
    (nasfpn_RCB_0_SUM1): RCB(
      (C): Conv2d(
        256, 256, kernel_size=(3, 3), stride=(1, 1), padding=(1, 1), bias=False
        (norm): NaiveSyncBatchNorm(256, eps=1e-05, momentum=0.1, affine=True, track_running_stats=True)
      )
    )
    (nasfpn_RCB_0_SUM2): RCB(
      (C): Conv2d(
        256, 256, kernel_size=(3, 3), stride=(1, 1), padding=(1, 1), bias=False
        (norm): NaiveSyncBatchNorm(256, eps=1e-05, momentum=0.1, affine=True, track_running_stats=True)
      )
    )
    (nasfpn_RCB_0_SUM3): RCB(
      (C): Conv2d(
        256, 256, kernel_size=(3, 3), stride=(1, 1), padding=(1, 1), bias=False
        (norm): NaiveSyncBatchNorm(256, eps=1e-05, momentum=0.1, affine=True, track_running_stats=True)
      )
    )
    (nasfpn_RCB_0_SUM4): RCB(
      (C): Conv2d(
        256, 256, kernel_size=(3, 3), stride=(1, 1), padding=(1, 1), bias=False
        (norm): NaiveSyncBatchNorm(256, eps=1e-05, momentum=0.1, affine=True, track_running_stats=True)
      )
    )
    (nasfpn_RCB_0_SUM5): RCB(
      (C): Conv2d(
        256, 256, kernel_size=(3, 3), stride=(1, 1), padding=(1, 1), bias=False
        (norm): NaiveSyncBatchNorm(256, eps=1e-05, momentum=0.1, affine=True, track_running_stats=True)
      )
    )
    (nasfpn_RCB_0_SUM4_RCB_GP1): RCB(
      (C): Conv2d(
        256, 256, kernel_size=(3, 3), stride=(1, 1), padding=(1, 1), bias=False
        (norm): NaiveSyncBatchNorm(256, eps=1e-05, momentum=0.1, affine=True, track_running_stats=True)
      )
    )
    (nasfpn_RCB_1_GP_P5_P3): RCB(
      (C): Conv2d(
        256, 256, kernel_size=(3, 3), stride=(1, 1), padding=(1, 1), bias=False
        (norm): NaiveSyncBatchNorm(256, eps=1e-05, momentum=0.1, affine=True, track_running_stats=True)
      )
    )
    (nasfpn_RCB_1_SUM1): RCB(
      (C): Conv2d(
        256, 256, kernel_size=(3, 3), stride=(1, 1), padding=(1, 1), bias=False
        (norm): NaiveSyncBatchNorm(256, eps=1e-05, momentum=0.1, affine=True, track_running_stats=True)
      )
    )
    (nasfpn_RCB_1_SUM2): RCB(
      (C): Conv2d(
        256, 256, kernel_size=(3, 3), stride=(1, 1), padding=(1, 1), bias=False
        (norm): NaiveSyncBatchNorm(256, eps=1e-05, momentum=0.1, affine=True, track_running_stats=True)
      )
    )
    (nasfpn_RCB_1_SUM3): RCB(
      (C): Conv2d(
        256, 256, kernel_size=(3, 3), stride=(1, 1), padding=(1, 1), bias=False
        (norm): NaiveSyncBatchNorm(256, eps=1e-05, momentum=0.1, affine=True, track_running_stats=True)
      )
    )
    (nasfpn_RCB_1_SUM4): RCB(
      (C): Conv2d(
        256, 256, kernel_size=(3, 3), stride=(1, 1), padding=(1, 1), bias=False
        (norm): NaiveSyncBatchNorm(256, eps=1e-05, momentum=0.1, affine=True, track_running_stats=True)
      )
    )
    (nasfpn_RCB_1_SUM5): RCB(
      (C): Conv2d(
        256, 256, kernel_size=(3, 3), stride=(1, 1), padding=(1, 1), bias=False
        (norm): NaiveSyncBatchNorm(256, eps=1e-05, momentum=0.1, affine=True, track_running_stats=True)
      )
    )
    (nasfpn_RCB_1_SUM4_RCB_GP1): RCB(
      (C): Conv2d(
        256, 256, kernel_size=(3, 3), stride=(1, 1), padding=(1, 1), bias=False
        (norm): NaiveSyncBatchNorm(256, eps=1e-05, momentum=0.1, affine=True, track_running_stats=True)
      )
    )
    (nasfpn_RCB_2_GP_P5_P3): RCB(
      (C): Conv2d(
        256, 256, kernel_size=(3, 3), stride=(1, 1), padding=(1, 1), bias=False
        (norm): NaiveSyncBatchNorm(256, eps=1e-05, momentum=0.1, affine=True, track_running_stats=True)
      )
    )
    (nasfpn_RCB_2_SUM1): RCB(
      (C): Conv2d(
        256, 256, kernel_size=(3, 3), stride=(1, 1), padding=(1, 1), bias=False
        (norm): NaiveSyncBatchNorm(256, eps=1e-05, momentum=0.1, affine=True, track_running_stats=True)
      )
    )
    (nasfpn_RCB_2_SUM2): RCB(
      (C): Conv2d(
        256, 256, kernel_size=(3, 3), stride=(1, 1), padding=(1, 1), bias=False
        (norm): NaiveSyncBatchNorm(256, eps=1e-05, momentum=0.1, affine=True, track_running_stats=True)
      )
    )
    (nasfpn_RCB_2_SUM3): RCB(
      (C): Conv2d(
        256, 256, kernel_size=(3, 3), stride=(1, 1), padding=(1, 1), bias=False
        (norm): NaiveSyncBatchNorm(256, eps=1e-05, momentum=0.1, affine=True, track_running_stats=True)
      )
    )
    (nasfpn_RCB_2_SUM4): RCB(
      (C): Conv2d(
        256, 256, kernel_size=(3, 3), stride=(1, 1), padding=(1, 1), bias=False
        (norm): NaiveSyncBatchNorm(256, eps=1e-05, momentum=0.1, affine=True, track_running_stats=True)
      )
    )
    (nasfpn_RCB_2_SUM5): RCB(
      (C): Conv2d(
        256, 256, kernel_size=(3, 3), stride=(1, 1), padding=(1, 1), bias=False
        (norm): NaiveSyncBatchNorm(256, eps=1e-05, momentum=0.1, affine=True, track_running_stats=True)
      )
    )
    (nasfpn_RCB_2_SUM4_RCB_GP1): RCB(
      (C): Conv2d(
        256, 256, kernel_size=(3, 3), stride=(1, 1), padding=(1, 1), bias=False
        (norm): NaiveSyncBatchNorm(256, eps=1e-05, momentum=0.1, affine=True, track_running_stats=True)
      )
    )
  )
  (proposal_generator): RPN(
    (anchor_generator): DefaultAnchorGenerator(
      (cell_anchors): BufferList()
    )
    (rpn_head): StandardRPNHead(
      (conv): Conv2d(256, 256, kernel_size=(3, 3), stride=(1, 1), padding=(1, 1))
      (objectness_logits): Conv2d(256, 3, kernel_size=(1, 1), stride=(1, 1))
      (anchor_deltas): Conv2d(256, 12, kernel_size=(1, 1), stride=(1, 1))
    )
  )
  (roi_heads): StandardROIHeads(
    (box_pooler): ROIPooler(
      (level_poolers): ModuleList(
        (0): ROIAlign(output_size=(7, 7), spatial_scale=0.25, sampling_ratio=0, aligned=True)
        (1): ROIAlign(output_size=(7, 7), spatial_scale=0.125, sampling_ratio=0, aligned=True)
        (2): ROIAlign(output_size=(7, 7), spatial_scale=0.0625, sampling_ratio=0, aligned=True)
        (3): ROIAlign(output_size=(7, 7), spatial_scale=0.03125, sampling_ratio=0, aligned=True)
      )
    )
    (box_head): FastRCNNConvFCHead(
      (conv1): Conv2d(
        256, 256, kernel_size=(3, 3), stride=(1, 1), padding=(1, 1), bias=False
        (norm): NaiveSyncBatchNorm(256, eps=1e-05, momentum=0.1, affine=True, track_running_stats=True)
      )
      (conv2): Conv2d(
        256, 256, kernel_size=(3, 3), stride=(1, 1), padding=(1, 1), bias=False
        (norm): NaiveSyncBatchNorm(256, eps=1e-05, momentum=0.1, affine=True, track_running_stats=True)
      )
      (conv3): Conv2d(
        256, 256, kernel_size=(3, 3), stride=(1, 1), padding=(1, 1), bias=False
        (norm): NaiveSyncBatchNorm(256, eps=1e-05, momentum=0.1, affine=True, track_running_stats=True)
      )
      (conv4): Conv2d(
        256, 256, kernel_size=(3, 3), stride=(1, 1), padding=(1, 1), bias=False
        (norm): NaiveSyncBatchNorm(256, eps=1e-05, momentum=0.1, affine=True, track_running_stats=True)
      )
      (fc1): Linear(in_features=12544, out_features=1024, bias=True)
    )
    (box_predictor): FastRCNNOutputLayers(
      (cls_score): Linear(in_features=1024, out_features=11, bias=True)
      (bbox_pred): Linear(in_features=1024, out_features=40, bias=True)
    )
  )
)
[06/06 08:40:14 d2.data.build INFO:63]: Removed 0 images with no usable annotations. 5415 images left.
[06/06 08:40:14 d2.data.build INFO:164]: Distribution of instances among all 10 categories:
[36m|   category    | #instances   |  category  | #instances   |  category  | #instances   |
|:-------------:|:-------------|:----------:|:-------------|:----------:|:-------------|
…
